…
Downloading data from https://storage.googleapis.com/tensorflow/keras-applications/resnet/resnet50_weights_tf_dim_ordering_tf_kernels_notop.h5\n94773248/94765736 [==============================] - 1s 0us/step: \nModel: \"ResNet50_TL\"\n_________________________________________________________________\nLayer (type)                 Output Shape              Param #   \n=================================================================\ninput_4 (InputLayer)         [(None, 224, 224, 3)]     0         \n_________________________________________________________________\nresnet50 (Functional)        (None, 7, 7, 2048)        23587712  \n_________________________________________________________________\nglobal_average_pooling2d (Gl (None, 2048)              0         \n_________________________________________________________________\ndropout_4 (Dropout)          (None, 2048)              0         \n_________________________________________________________________\ndense_2 (Dense)              (None, 512)               1049088   \n_________________________________________________________________\ndropout_5 (Dropout)          (None, 512)               0         \n_________________________________________________________________\ndense_3 (Dense)              (None, 8)                 4104      \n=================================================================\nTotal params: 24,640,904\nTrainable params: 1,053,192\nNon-trainable params: 23,587,712\n_________________________________________________________________\nEpoch 1/15\n13/13 [==============================] - 17s 1s/step - loss: 2.9123 - accuracy: 0.1297 - val_loss: 2.0997 - val_accuracy: 0.1575\n\nEpoch 00001: val_accuracy
…
rom https://storage.googleapis.com/tensorflow/keras-applications/mobilenet_v2/mobilenet_v2_weights_tf_dim_ordering_tf_kernels_1.0_224_no_top.h5\n9412608/9406464 [==============================] - 0s 0us/step\nModel: \"MobileNetV2_TL\"\n_________________________________________________________________\nLayer (type)                 Output Shape              Param #   \n=================================================================\ninput_6 (InputLayer)         [(None, 256, 256, 3)]     0         \n_________________________________________________________________\nmobilenetv2_1.00_224 (Functi (None, 8, 8, 1280)        2257984   \n_________________________________________________________________\nglobal_average_pooling2d_1 ( (None, 1280)              0         \n_________________________________________________________________\ndropout_6 (Dropout)          (None, 1280)              0         \n_________________________________________________________________\ndense_4 (Dense)              (None, 256)               327936    \n_________________________________________________________________\ndropout_7 (Dropout)          (None, 256)               0         \n_________________________________________________________________\ndense_5 (Dense)              (None, 8)                 2056      \n=================================================================\nTotal params: 2,587,976\nTrainable params: 329,992\nNon-trainable params: 2,257,984\n_________________________________________________________________\nEpoch 1/20\n13/13 [==============================] - 16s 1s/step - loss: 2.9002 - accuracy: 0.1630 - val_loss: 1.5579 - val_accuracy: 0.4675\n\nEpoch 00001: val_accuracy imp
…
